models/float_model.tflite (tflite, 68044 bytes, 4 tensors)

Conv2D_bias f4 [8]
00000000: e085 d9bc 194a 543b fafe cab9 b89d 543b
00000010: 846b b23a 7b98 0cba c120 103c be35 6a3b
-0.026553094 0.0032392798 -0.00038718415 0.003244264 0.0013612364 -0.00053632975 0.008796872 0.00357376

MatMul_bias f4 [4]
00000000: 32bf 873c 5e80 19b9 3383 30bc dd2a b9bb
0.016570661 -0.00014639038 -0.010773468 -0.0056508617

final_fc_weights/read/transpose f4 [4, 4000]
00000000: 1965 2e3c af4d a63c 7fa3 25bb 4347 303b
00000010: ca82 d83b aff5 71bc 72a1 f43b a046 993c
00000020: 9b1a c5bb f6ae b73c f262 40bc bbe0 303c
00000030: 550b 46ba 54e6 a03b 5bd5 943c 370e b6bb
00000040: fa99 8f3b 25fb 0dbb 9a8f bbbb 4293 23bc
00000050: 6924 d7ba b167 423c fc28 253c 7fcc e23b
00000060: 953b 383b 500e 0a3c f7c2 643b c1ea bdbc
00000070: ce17 f3bb 366c e8bb a43e ba3b fbec 333b
00000080: e938 99bb bc72 16bc 823a 56bb 1d83 b0bc
00000090: e468 29bc f52f 9d38 1ce8 a5bb 4827 36bc
000000a0: 3e45 4a3c 6f70 5ebc 3294 7cbb f8f0 90bc
000000b0: 3ce0 acbb 1af5 7cbb ca59 70bb 29ff e6b9
000000c0: 1894 a13c 1d71 36bc 6b0f fcbb cbf2 85bc
000000d0: f3f4 6bba 82e1 9f3c 2f67 dd3b edf1 f6bb
000000e0: 74a1 fa3a a421 023b 2af0 733b 3d2f aebc
000000f0: 383e 573b dd0f 2039 6461 363c af4f 9e3b
00000100: a43b 9e3c 81b7 9d3c 6e58 e4bb 8a11 16bc
00000110: 9669 bebb 2837 e3b9 adb3 a9b9 6ac5 f13b
00000120: c310 fcbb 28c9 b7bb 6fd2 c33b af2e 37bb
00000130: 678b 503c 106f 0abc 9703 273b 5b61 17bc
00000140: 2b59 c3bb 778f 8dba 719e 21bc 6260 613b
00000150: 7178 54bb a3e0 923b 8924 4e3b 8f44 36bb
00000160: c501 24b9 1619 47bc 56b3 6ebb d25e b7bc
00000170: b620 883c 5140 42bc 2845 113b b69e 723a
00000180: 21d2 393c 5f39 89bc 6903 1dbb 1bb5 05b9
00000190: 38fc 39bc 4aec ed3a 7baf 443c c959 c93b
000001a0: 2664 77bc ca3e 903b ba8d a43a b346 40bb
000001b0: 2136 a1bc 33c5 163c e428 263b 40cb 0d3c
000001c0: dc74 a63c 7849 b7bc 4265 7f3b 7f1a a8bc
000001d0: 4067 5dbc 66df 73bb 3ea2 97b8 e768 8e3c
000001e0: 8807 a63c ea5d 6ebc a1e0 9b3b de6c 98bb
000001f0: b262 8abc b362 0a3c 69e6 1d3c e7b8 cfbb
00000200: 613e f23a aa81 feba 1036 d73b 9815 d7bb
00000210: 3917 6e3c 06ee 1b3c 8346 88bb 421e 9d3a
00000220: 06c0 4bba 22df 5f3c 1d1c 7dba d1b0 b6b9
00000230: 712a b13b f53a c7bb 0c43 00bb 5b36 2eba
00000240: 3189 383c e774 86ba 367e 7a3a 68a8 3bbb
00000250: 086f 8ebb cafd 69bc 62df 9c3b dc61 8eba
00000260: 225b 6d3c 50ed cb3b 13bc f13a 783e be3b
00000270: 5e7d 2fbc 1320 363c 38a7 803c 0ea5 4c3a
00000280: 8654 963b 96f9 04bc 1408 0d3b 90a1 0e3c
00000290: 8bea 703c ff02 a3bb 6ac9 38bc ef75 013a
000002a0: 0fd5 763c 4fef 083d af0f 4ab8 e060 8abb
000002b0: d95b 11bb 4110 43ba 9eda f63b 5178 39bb
000002c0: c4f4 a53c e3e7 d63a 7857 acbc 881d cebb
000002d0: 97a0 933b d234 293c f3cb 35bc bc25 83bb
000002e0: 2efd 74bb 6908 0539 7df1 223b 7832 02bb
000002f0: 5a5c c2bb a264 073c 2ed5 883c 0264 3b3a
00000300: c1ae 21bb b27b 3dbc 1f5b 153c 078f 0abc
00000310: aa5a 033b 2c44 6d3c 49d5 7cbb e9d6 8b3b
00000320: 0b3b 643c 0a6f 883a 875c cd3c 4ff3 52bb
00000330: 8108 193c fac1 203c 65dd 433b 71e0 c33b
00000340: 8290 94bb a4cc beb9 5d80 2e3a 3a3d 4c3a
00000350: 955e 3a3a 5b76 ffbb ea16 383c 60d0 5cba
00000360: 2160 65bc 7205 883b bddc b1bb 0c28 3bbc
00000370: 5360 3dbc 985f 253b bc50 a73a 332f f9bb
00000380: 7167 603c 655c dfbb ee48 e5b8 d215 79bc
00000390: a27c 1d3c f7fc 29ba a291 273b 92c0 1839
000003a0: 262d 7e3b 9c5c 623b f69d c6bb ad85 5bbc
000003b0: 00a1 6c3c d0f9 503c 4f84 d6bb 3093 f23b
000003c0: 79fb 09bc c54f a0bb 9c44 7dba 15ab 843c
000003d0: b2e5 b33a ba46 62bb 300b 00bc cf94 5abb
000003e0: b02d 0cbb 07fe 8cbc adca 203c 193d 21bc
000003f0: 7788 96bc 1e79 2abc 4ed8 6c3c 714f ec3b
0.010644221 0.020300714 -0.0025274453 0.0026897944 0.006607388 -0.014768048 0.007465535 0.018710434
-0.0060151345 0.022422295 -0.01174234 0.010795767 -0.0007554789 0.0049102698 0.018168142 -0.0055558938
0.004382369 -0.0021664586 -0.0057239057 -0.0099838395 -0.0016414049 0.011865542 0.010080572 0.0069213505
0.0028111686 0.008426264 0.0034906247 -0.023183228 -0.007418609 -0.007092978 0.005683737 0.0027454484
-0.0046759737 -0.009182628 -0.0032688682 -0.021546895 -0.010339949 7.495276e-05 -0.00506307 -0.011117764
0.01234561 -0.013576611 -0.003854048 -0.017693028 -0.0052757543 -0.003859824 -0.0036674612 -0.00044059128
0.019723937 -0.011135367 -0.0076922677 -0.016351124 -0.0009001039 0.01951671 0.006756685 -0.007536164
0.0019121603 0.0019856477 0.0037222006 -0.02126276 0.0032843482 0.00015264699 0.011131618 0.0048312764
0.019315548 0.01925254 -0.0069685495 -0.009159455 -0.0058109267 -0.0004333791 -0.0003236806 0.00737827
-0.007692428 -0.0056086965 0.0059760134 -0.002795141 0.012728549 -0.008449331 0.0025484317 -0.00923952
-0.0059615574 -0.0010800202 -0.0098644355 0.0034389724 -0.0032420421 0.004482345 0.0031454882 -0.002781186
-0.00015640918 -0.012151977 -0.003642281 -0.022384081 0.01661716 -0.011856155 0.0022166464 0.0009255217
0.011341603 -0.01675099 -0.0023958331 -0.00012751335 -0.011351638 0.0018152085 0.012004728 0.0061447364
-0.015099561 0.0044020163 0.0012554445 -0.0029339015 -0.019679131 0.009202289 0.0025353963 0.008654416
0.020319395 -0.0223739 0.0038970266 -0.020520447 -0.013513386 -0.0037212013 -7.230461e-05 0.017384006
0.020267263 -0.014548758 0.0047570025 -0.00465165 -0.016892765 0.008446383 0.009637454 -0.0063391807
0.0018481725 -0.0019417305 0.006567724 -0.0065638535 0.014531904 0.009517198 -0.0041587963 0.0011987167
-0.0007772449 0.013664039 -0.0009655373 -0.00034845484 0.0054066707 -0.0060800263 -0.0019571213 -0.0006645673
0.011263178 -0.0010258228 0.000955555 -0.0028634313 -0.004346732 -0.014281699 0.0047873715 -0.0010862905
0.01448706 0.006223358 0.0018442891 0.0058057867 -0.010711042 0.0111160455 0.015704736 0.00078065775
0.0045877127 -0.008116147 0.0021519708 0.008705512 0.014704357 -0.0049747224 -0.01127849 0.0004938533
0.015065446 0.033431347 -4.817516e-05 -0.004222974 -0.002217999 -0.00074410817 0.0075333854 -0.0028300474
0.020258315 0.0016396012 -0.021037802 -0.0062901415 0.004505228 0.010327535 -0.011095989 -0.004002301
-0.0037382352 0.00012687001 0.0024863177 -0.0019866508 -0.0059314193 0.008263739 0.016703214 0.0007148386
-0.0024670812 -0.011565136 0.009115963 -0.008456952 0.0020043054 0.0144815855 -0.0038579276 0.0042675626
0.013930093 0.0010409069 0.025068535 -0.003218848 0.009340406 0.009811873 0.00298866 0.0059776832
-0.0045338282 -0.00036392093 0.0006656701 0.0007791106 0.0007109431 -0.0077960915 0.011235932 -0.0008423384
-0.01399997 0.0041510398 -0.0054279254 -0.011423122 -0.01155861 0.002523398 0.001276515 -0.0076045035
0.013696537 -0.006816434 -0.00010933155 -0.015202956 0.009612234 -0.0006484533 0.0025568982 0.00014567588
0.0038784235 0.0034540063 -0.006061311 -0.01339857 0.014442682 0.012754872 -0.006546534 0.0074028
-0.008421772 -0.004892322 -0.00096614077 0.01619486 0.0013725071 -0.003452702 -0.007815167 -0.0033352857
-0.0021389537 -0.017210973 0.009813947 -0.009841227 -0.018375618 -0.010404853 0.014455868 0.0072116186

first_weights/read f4 [1, 10, 8, 8]
00000000: f4f9 8f3d dd5e e03b d227 ebbc 14bd 6d37
00000010: b532 96bc cd9e 8c3c 3fec fc3c 04ee 74bb
00000020: c59d 153d 44bf 893c ff1f 58bb 5900 23bc
00000030: 9b68 313d 1486 113c 2120 f639 9614 c8bc
00000040: 5f20 9c3d e51f 223c e7e0 433d c830 053c
00000050: c9a0 24bb e6a4 b73c 7352 3e3d 6dad d7bc
00000060: 0c04 533c 33a9 b0bb 7919 4abb 61f4 573c
00000070: 29d5 ae3c 9807 2ebc e4bd 5cbc f096 1e3d
00000080: 38de 1f3c bd26 33bd 21e2 433d a025 05bd
00000090: b93e a13b 5572 ffbb 9e96 d03c c7a5 38bd
000000a0: 91e2 2fbd 794d 2dbd f388 c73c e5fc d7bc
000000b0: bc43 bd3c c12a b33b 9f88 b53c ba57 dfbc
000000c0: 24ae 15bd 6f97 0ebd 4123 ddbb 0a4f 8039
000000d0: 4fe4 2dbc 0850 4ebc 62b8 193d c703 0fbd
000000e0: c118 76bd 5d4e 543b 26c3 383a 657f bf3c
000000f0: 6c03 c9bb d751 80bc 44a3 4e3d 9506 b23b
00000100: 40c7 993d cf70 9bbb ef8c d9bc f543 66bb
00000110: b99d eebc 111f 2a3b 52aa ee3b 8394 903a
00000120: 0ee5 1c3d 6a00 ab3c 052d 373b b2a4 9c3c
00000130: 1e51 2a3d 8773 ca3c ea08 3f3a d8ed 90bb
00000140: 4143 be3d 3ef8 ce3c 4d7c 473d 8f3e 143c
00000150: 579b 263c 25b6 c73c 7adb 103d dc81 42bc
00000160: 16cd 933a f8ee 823c e207 99bb 4411 973c
00000170: c072 d7bb 362e aabc 55b8 09bd f7e3 2d3d
00000180: a0fc 8b3c 884c 26bd 5a9f 313d e043 d9bc
00000190: d2a6 6c3c 5d45 c13c c938 ff3c db3a 3ebd
000001a0: 1d3a 37bd 1966 28bd c2f8 023d 1eb3 61bc
000001b0: 047c 873b c6f7 ac3b cacd 543c c506 cdbb
000001c0: b367 41bd 075a dcbc a37f 643c 8fcf cf3b
000001d0: 872c 08bc fb80 f9bc 0c3b 653d 0ed6 04bd
000001e0: 67d0 92bd 2f6d 9d3c 3cd8 5abc 2fa7 073c
000001f0: 0bf2 b2bb 7f7f a0bc 5c5a 143d 1621 cf3c
00000200: 5ea9 a53d be9c 353c c2e1 fbbc 81a3 4fbc
00000210: 4166 afbc 8221 5d3c 4e13 823c 4cd8 5abb
00000220: 27f1 133d 6efc 1b3d 1f60 bcbc 78e4 993b
00000230: 5fd1 463d 9629 9b3c e88a ecbc d697 1cbc
00000240: 58bd e13d 9005 053d 7784 103d af78 483b
00000250: 459f a43a f7b4 f63c a96f 803c 9627 e9bb
00000260: 7c6c e03b b307 bf3c 3002 68bc 6417 fc3b
00000270: 6a17 4b3c e426 9abc 001d 2bbd 929c 643d
00000280: 084e 843c b91a 26bd 5529 ee3c cb04 e2bc
00000290: 7a5f 03bc 2133 ac3b 0d92 903c 8ed6 61bd
000002a0: e7e0 62bd d4bd 05bd d526 a33c 0644 04bd
000002b0: 2f81 213a deeb 2f3b 336b a23c 0ec9 9fba
000002c0: 63e9 34bd 9777 37bd 7078 ab3b d267 4dbb
000002d0: e6d7 78bc c347 00bd 24ea 313d aa17 e7bc
000002e0: 9b1b a2bd 4a20 0d3b b222 35bc 0f55 8f3c
000002f0: e4b7 34bc afe0 10bc 20bc 503d b954 233d
00000300: 7af7 b33d f97c 803c 513a 02bd 3e2d 93bc
00000310: e341 9bbc a842 9b3c 2b3d 943b 615b 1abc
00000320: c85d 213d f35f 503d 11e5 dcbc 5564 e6ba
00000330: e8cb 293d 2cd5 6f3c 258b b9bc d78f 913b
00000340: 4ee1 e13d 0fb2 103d 49d7 143d 53ad e33b
00000350: 7ec5 b03b 4edc b13c 2908 143c 3271 92bc
00000360: a812 253c 5b49 263c c8d1 dabc 50df ca3c
00000370: c649 a13a 9f4a f8bb aad4 22bd d1d1 533d
00000380: 451a d13c 1143 74bd 81f8 503d 5973 0cbd
00000390: 6402 59bb 2862 c13c e6eb 913c 9ddd 4abd
000003a0: d101 69bd c02c cfbc 8e58 a03c b0e3 1dbc
000003b0: 7b4c 413c ef6d c43b 79fb 5c3c 44d7 2ebb
000003c0: f92d 35bd 3e97 31bd 1a44 123d 50d4 99bc
000003d0: 6b1b cc3a d1ba e3bc 6684 6d3d 48f5 34bd
000003e0: 0815 a4bd f280 913b 3d80 80bc 4383 32bb
000003f0: a0e1 cdbc b834 6abc 1b66 833d 7c39 553d
0.07030097 0.006847246 -0.028705511 1.4170324e-05 -0.018334726 0.017165566 0.03087437 -0.0037373314
0.036527414 0.016814835 -0.0032978056 -0.009948813 0.04331265 0.008882064 0.00046944714 -0.024423879
0.07623362 0.0098953 0.047821905 0.008129306 -0.002512025 0.022417497 0.04646535 -0.026327813
0.012879383 -0.005391264 -0.0030837937 0.013180823 0.021341877 -0.010621928 -0.013473008 0.038718164
0.009757571 -0.043738116 0.047823075 -0.032506585 0.004920807 -0.007795612 0.025462445 -0.045079973
-0.04294068 -0.04231021 0.024357295 -0.026365707 0.023103587 0.005467743 0.022159873 -0.027263511
-0.036543027 -0.034812387 -0.0067485874 0.0002447295 -0.010613515 -0.012592323 0.037529357 -0.03491571
-0.0600822 0.003239534 0.00070481224 0.023376176 -0.006134441 -0.015664024 0.05044867 0.0054329135
0.07508707 -0.0047436724 -0.02655646 -0.003513572 -0.029127942 0.0025958458 0.0072834874 0.0011030588
0.03830438 0.02087422 0.0027950418 0.019121502 0.041581266 0.02471329 0.00072874 -0.0044228844
0.092901714 0.025264855 0.048702527 0.009048118 0.010168872 0.024378845 0.03536556 -0.011871781
0.001127633 0.01598309 -0.004670129 0.01844085 -0.0065749586 -0.020773988 -0.03362306 0.042453732
0.017088234 -0.04060033 0.04336486 -0.026521623 0.01444407 0.023592645 0.031155007 -0.046442848
-0.044733156 -0.041112993 0.031975515 -0.013775615 0.004134657 0.0052785603 0.012988517 -0.0062569105
-0.047218036 -0.026898397 0.013946447 0.0063418816 -0.008311397 -0.03045701 0.055964515 -0.0324307
-0.07168656 0.019217102 -0.013357218 0.008279606 -0.0054609827 -0.019592045 0.036218986 0.025284331
0.08088945 0.0110847335 -0.030747298 -0.01267326 -0.021411063 0.013496758 0.015878346 -0.0033393083
0.036118653 0.038082533 -0.022995053 0.004696425 0.048539516 0.018940728 -0.02887483 -0.009557685
0.110224426 0.032476008 0.03528258 0.003058951 0.0012559673 0.030115588 0.015678244 -0.0071153147
0.00684887 0.023319101 -0.014160678 0.007693218 0.012395719 -0.018817373 -0.041775703 0.05581338
0.01615049 -0.04055283 0.029072443 -0.027590176 -0.008018369 0.0052551185 0.017647767 -0.055136256
-0.055390265 -0.032651737 0.019915977 -0.032291435 0.00061609125 0.0026843469 0.019826507 -0.0012190656
-0.044167887 -0.044791784 0.005232863 -0.00313424 -0.015188193 -0.031318437 0.043436185 -0.028209526
-0.079154216 0.0021534138 -0.011055635 0.017496614 -0.011030171 -0.008842631 0.05096066 0.03987572
0.08787437 0.015684592 -0.031793896 -0.01796591 -0.018952316 0.018952683 0.0045238934 -0.0094212005
0.039396077 0.050872754 -0.026964696 -0.0017577509 0.041454226 0.0146382265 -0.022649357 0.004442196
0.110293016 0.03532606 0.036338124 0.006948152 0.0053946367 0.021711495 0.009035149 -0.017876241
0.010075249 0.010149325 -0.02671136 0.024764687 0.0012305311 -0.007577255 -0.039753594 0.05171377
0.025525222 -0.059634272 0.05101824 -0.03428969 -0.0033112997 0.023606375 0.01781268 -0.049527753
-0.056886498 -0.025289893 0.019573476 -0.009636804 0.0117980195 0.0059945504 0.01348769 -0.0026678601
-0.044233296 -0.043357126 0.035709478 -0.018777996 0.0015572136 -0.027799042 0.057987593 -0.04417923
-0.08011824 0.0044404203 -0.015686149 -0.0027238883 -0.025132 -0.014294796 0.064159594 0.052056774
