models/model.tflite (tflite, 18712 bytes, 2 tensors)

final_fc_weights/read/transpose i1 [4, 4000] scale=0.00039765862 zero_point=0
00000000: 1b33 fa07 11db 132f f138 e21b fe0c 2ef2
00000010: 0bfb f2e7 fc1e 1911 0715 09c6 edee 0e07
00000020: f4e9 f8ca e600 f3e4 1fde f6d4 f3f6 f7ff
00000030: 32e4 edd7 fe31 11ed 0505 09cb 0800 1c0c
00000040: 3130 eee9 f1ff ff13 edf2 0ff9 20eb 06e9
00000050: f1fd e709 f80b 08f9 00e1 f7c8 2ae2 0602
00000060: 1dd6 fa00 e305 1e0f da0b 03f9 cf17 0616
00000070: 33c8 0acc def7 002c 33db 0cf4 d615 18f0
00000080: 05fb 11ef 2518 f603 fe22 feff 0ef1 fbfe
00000090: 1cfd 02f9 f5dc 0cfd 2410 050f e51c 2702
000000a0: 0cec 0516 25f3 e401 2654 00f5 fafe 13f9
000000b0: 3304 cbf0 0b1a e4f6 f700 06fb f115 2a02
000000c0: fae3 17eb 0524 f60b 2303 3ff8 1719 080f
000000d0: f5ff 0202 02ec 1cfe dd0a f2e3 e306 03ed
000000e0: 22ef 00da 18fe 0600 0a09 f1de 2420 f013
000000f0: ebf4 fe29 03f7 ecf8 fbd5 19e7 d2e6 2412
0.010736783 0.02028059 -0.0023859516 0.0027836103 0.0067601963 -0.014713368 0.0075555136 0.018689955
-0.0059648794 0.022268882 -0.011929759 0.010736783 -0.00079531723 0.004771903 0.018292297 -0.0055672205
0.0043742447 -0.0019882931 -0.0055672205 -0.009941465 -0.0015906345 0.011929759 0.009941465 0.0067601963
0.0027836103 0.0083508305 0.0035789276 -0.0230642 -0.0075555136 -0.007157855 0.0055672205 0.0027836103
-0.004771903 -0.009146148 -0.003181269 -0.021473566 -0.010339124 0.0 -0.005169562 -0.011134441
0.012327417 -0.013520393 -0.0039765863 -0.017496979 -0.005169562 -0.0039765863 -0.0035789276 -0.00039765862
0.01988293 -0.011134441 -0.0075555136 -0.016304003 -0.00079531723 0.019485272 0.0067601963 -0.0075555136
0.0019882931 0.0019882931 0.0035789276 -0.021075906 0.003181269 0.0 0.011134441 0.004771903
0.019485272 0.019087613 -0.007157855 -0.009146148 -0.0059648794 -0.00039765862 -0.00039765862 0.0075555136
-0.0075555136 -0.0055672205 0.0059648794 -0.0027836103 0.012725076 -0.0083508305 0.0023859516 -0.009146148
-0.0059648794 -0.0011929758 -0.009941465 0.0035789276 -0.003181269 0.0043742447 0.003181269 -0.0027836103
0.0 -0.012327417 -0.0035789276 -0.022268882 0.016701661 -0.011929759 0.0023859516 0.00079531723
0.0115321 -0.016701661 -0.0023859516 0.0 -0.0115321 0.0019882931 0.011929759 0.0059648794
-0.015111027 0.0043742447 0.0011929758 -0.0027836103 -0.019485272 0.009146148 0.0023859516 0.008748489
0.02028059 -0.022268882 0.0039765863 -0.020678248 -0.013520393 -0.0035789276 0.0 0.017496979
0.02028059 -0.014713368 0.004771903 -0.004771903 -0.016701661 0.0083508305 0.009543806 -0.006362538
0.0019882931 -0.0019882931 0.0067601963 -0.0067601963 0.014713368 0.009543806 -0.0039765863 0.0011929758
-0.00079531723 0.013520393 -0.00079531723 -0.00039765862 0.0055672205 -0.0059648794 -0.0019882931 -0.00079531723
0.011134441 -0.0011929758 0.00079531723 -0.0027836103 -0.0043742447 -0.01431571 0.004771903 -0.0011929758
0.01431571 0.006362538 0.0019882931 0.0059648794 -0.010736783 0.011134441 0.015508686 0.00079531723
0.004771903 -0.007953173 0.0019882931 0.008748489 0.014713368 -0.005169562 -0.011134441 0.00039765862
0.015111027 0.033403322 0.0 -0.0043742447 -0.0023859516 -0.00079531723 0.0075555136 -0.0027836103
0.02028059 0.0015906345 -0.021075906 -0.006362538 0.0043742447 0.010339124 -0.011134441 -0.0039765863
-0.0035789276 0.0 0.0023859516 -0.0019882931 -0.0059648794 0.0083508305 0.016701661 0.00079531723
-0.0023859516 -0.0115321 0.009146148 -0.0083508305 0.0019882931 0.01431571 -0.0039765863 0.0043742447
0.0139180515 0.0011929758 0.025052493 -0.003181269 0.009146148 0.009941465 0.003181269 0.0059648794
-0.0043742447 -0.00039765862 0.00079531723 0.00079531723 0.00079531723 -0.007953173 0.011134441 -0.00079531723
-0.0139180515 0.0039765863 -0.0055672205 -0.0115321 -0.0115321 0.0023859516 0.0011929758 -0.0075555136
0.013520393 -0.0067601963 0.0 -0.015111027 0.009543806 -0.00079531723 0.0023859516 0.0
0.0039765863 0.0035789276 -0.0059648794 -0.013520393 0.01431571 0.012725076 -0.006362538 0.0075555136
-0.0083508305 -0.004771903 -0.00079531723 0.016304003 0.0011929758 -0.0035789276 -0.007953173 -0.003181269
-0.0019882931 -0.01709932 0.009941465 -0.009941465 -0.018292297 -0.010339124 0.01431571 0.007157855

first_weights/read i1 [1, 10, 8, 8]
00000000: 510e c200 d53b 36fa 2a23 f9ec 651e 01d7
00000010: 5814 6710 fa4d 52d4 0ff5 f91a 32dc e841
00000020: 0ba6 67c0 0be5 2db5 cfa8 34cc 3613 27d2
00000030: d6b8 f100 e7d5 42c6 bb07 022e f2ca 5909
00000040: 56f6 c7f9 bc09 0d02 2c2b 0626 6155 01f9
00000050: 6b34 6912 1854 3eec 0121 f624 f1b9 c547
00000060: 14ac 5dcc 2251 37b2 ccab 45e5 0a12 17f6
00000070: cac8 1e0c ed97 63ca ad28 e310 f3bd 402a
00000080: 5d17 bee7 ce2e 1cfa 2a4f cf09 7141 cdf0
00000090: 7f43 4c06 0367 1cf4 0830 e20f 1dbf b65d
000000a0: 13ac 3eca ed12 1fa4 c0bc 2bc1 0109 23fe
000000b0: cda3 0bfa dd95 4dd1 a504 e822 e6e2 5a43
000000c0: 6520 bcdd d441 08f0 2d69 c6fd 6032 d807
000000d0: 7f49 4e0e 0d4b 10e2 0c15 c731 03e6 ba56
000000e0: 1d85 6ebd f851 1fad becc 2aed 1b15 18fc
000000f0: cda6 4ddb 04a1 66b6 a409 defb c6cf 7157
81 14 -62 0 -43 59 54 -6
42 35 -7 -20 101 30 1 -41
88 20 103 16 -6 77 82 -44
15 -11 -7 26 50 -36 -24 65
11 -90 103 -64 11 -27 45 -75
-49 -88 52 -52 54 19 39 -46
-42 -72 -15 0 -25 -43 66 -58
-69 7 2 46 -14 -54 89 9
86 -10 -57 -7 -68 9 13 2
44 43 6 38 97 85 1 -7
107 52 105 18 24 84 62 -20
1 33 -10 36 -15 -71 -59 71
20 -84 93 -52 34 81 55 -78
-52 -85 69 -27 10 18 23 -10
-54 -56 30 12 -19 -105 99 -54
-83 40 -29 16 -13 -67 64 42
93 23 -66 -25 -50 46 28 -6
42 79 -49 9 113 65 -51 -16
127 67 76 6 3 103 28 -12
8 48 -30 15 29 -65 -74 93
19 -84 62 -54 -19 18 31 -92
-64 -68 43 -63 1 9 35 -2
-51 -93 11 -6 -35 -107 77 -47
-91 4 -24 34 -26 -30 90 67
101 32 -68 -35 -44 65 8 -16
45 105 -58 -3 96 50 -40 7
127 73 78 14 13 75 16 -30
12 21 -57 49 3 -26 -70 86
29 -123 110 -67 -8 81 31 -83
-66 -52 42 -19 27 21 24 -4
-51 -90 77 -37 4 -95 102 -74
-92 9 -34 -5 -58 -49 113 87
